…
        [1., 0., 0.],
        [1., 0., 0.],
        [1., 0., 0.],
        [1., 0., 0.],
        [1., 0., 0.],
        [1., 0., 0.],
        [1., 0., 0.],
        [1., 0., 0.],
        [1., 0., 0.],
        [1., 0., 1.],
        [1., 0., 1.],
        [2., 0., 1.],
        [1., 0., 1.],
        [2., 0., 1.],
        [1., 0., 1.],
        [1., 0., 0.],
        [1., 0., 0.],
        [1., 0., 0.],
        [1., 0., 0.],
        [1., 0., 0.],
        [1., 0., 0.],
        [1., 0., 0.],
        [1., 0., 0.]]), 'y': tensor([1])})
1484
7
302
1219
1220
Net(
  (gin_layers): ModuleList(
    (0): GINConv(nn=Sequential(
      (0): Linear(in_features=9, out_features=128, bias=True)
      (1): ReLU()
      (2): Linear(in_features=128, out_features=128, bias=True)
      (3): BatchNorm(128)
    ))
    (1): GINConv(nn=Sequential(
      (0): Linear(in_features=128, out_features=128, bias=True)
      (1): ReLU()
      (2): Linear(in_features=128, out_features=128, bias=True)
      (3): BatchNorm(128)
    ))
    (2): GINConv(nn=Sequential(
      (0): Linear(in_features=128, out_features=128, bias=True)
      (1): ReLU()
      (2): Linear(in_features=128, out_features=128, bias=True)
      (3): BatchNorm(128)
    ))
    (3): GINConv(nn=Sequential(
      (0): Linear(in_features=128, out_features=128, bias=True)
      (1): ReLU()
      (2): Linear(in_features=128, out_features=128, bias=True)
      (3): BatchNorm(128)
    ))
    (4): GINConv(nn=Sequential(
      (0): Linear(in_features=128, out_features=128, bias=True)
      (1): ReLU()
      (2): Linear(in_features=128, out_features=128, bias=True)
      (3): BatchNorm(128)
    ))
  )
  (lin1): Linear(128, 128, bias=True)
  (lin2): Linear(128, 2, bias=True)
  (bn1): BatchNorm(128)
)
tensor([729, 911, 328,  ..., 549, 235, 473])
Test Loss: 0.351, Train Acc: 0.938 Test Acc: 0.932
Number of nodes must be greater than 1
Number of nodes must be greater than 1
Number of nodes must be greater than 1
Number of nodes must be greater than 1
Number of nodes must be greater than 1
0
1
2
3
4
5
6
7
8
9
10
11
12
13
14
15
16
17
18
19
20
21
22
23
24
…
