…
        [1., 0., 0.],
        [1., 0., 0.],
        [1., 0., 0.],
        [1., 0., 1.],
        [1., 0., 1.],
        [2., 0., 1.],
        [1., 0., 1.],
        [2., 0., 1.],
        [1., 0., 1.],
        [1., 0., 0.],
        [1., 0., 0.],
        [1., 0., 0.],
        [1., 0., 0.],
        [1., 0., 0.],
        [1., 0., 0.],
        [1., 0., 0.],
        [1., 0., 0.]]), 'y': tensor([1])})
1484
Graph 7 is empty or has no edges
Graph 302 is empty or has no edges
Graph 1219 is empty or has no edges
Graph 1220 is empty or has no edges
1480
Net(
  (gin_layers): ModuleList(
    (0): GINConv(nn=Sequential(
      (0): Linear(in_features=9, out_features=128, bias=True)
      (1): ReLU()
      (2): Linear(in_features=128, out_features=128, bias=True)
      (3): BatchNorm(128)
    ))
    (1): GINConv(nn=Sequential(
      (0): Linear(in_features=128, out_features=128, bias=True)
      (1): ReLU()
      (2): Linear(in_features=128, out_features=128, bias=True)
      (3): BatchNorm(128)
    ))
    (2): GINConv(nn=Sequential(
      (0): Linear(in_features=128, out_features=128, bias=True)
      (1): ReLU()
      (2): Linear(in_features=128, out_features=128, bias=True)
      (3): BatchNorm(128)
    ))
    (3): GINConv(nn=Sequential(
      (0): Linear(in_features=128, out_features=128, bias=True)
      (1): ReLU()
      (2): Linear(in_features=128, out_features=128, bias=True)
      (3): BatchNorm(128)
    ))
    (4): GINConv(nn=Sequential(
      (0): Linear(in_features=128, out_features=128, bias=True)
      (1): ReLU()
      (2): Linear(in_features=128, out_features=128, bias=True)
      (3): BatchNorm(128)
    ))
  )
  (lin1): Linear(128, 128, bias=True)
  (lin2): Linear(128, 2, bias=True)
  (bn1): BatchNorm(128)
)
tensor([729, 911, 328,  ..., 549, 235, 473])
Test Loss: 0.351, Train Acc: 0.938 Test Acc: 0.932
514
681
753
763
1132
1345
9
Train feature 0 shape: [(41, 128), (41, 128), (41, 128), (41, 128), (41, 128), (1, 128), (1, 128), (1, 128), (1, 2)]
Train feature 1 shape: [(22, 128), (22, 128), (22, 128), (22, 128), (22, 128), (1, 128), (1, 128), (1, 128), (1, 2)]
…
